Using 16bit native Automatic Mixed Precision (AMP)
GPU available: True, used: True
TPU available: False, using: 0 TPU cores
IPU available: False, using: 0 IPUs
HPU available: False, using: 0 HPUs
Using cache found in /home/lmur/.cache/torch/hub/facebookresearch_pytorchvideo_main
Using backbone: StillFastBackbone(
  (still_backbone): ResNet(
    (conv1): Conv2d(3, 64, kernel_size=(7, 7), stride=(2, 2), padding=(3, 3), bias=False)
    (bn1): FrozenBatchNorm2d(64, eps=1e-05)
    (relu): ReLU(inplace=True)
    (maxpool): MaxPool2d(kernel_size=3, stride=2, padding=1, dilation=1, ceil_mode=False)
    (layer1): Sequential(
      (0): Bottleneck(
        (conv1): Conv2d(64, 64, kernel_size=(1, 1), stride=(1, 1), bias=False)
        (bn1): FrozenBatchNorm2d(64, eps=1e-05)
        (conv2): Conv2d(64, 64, kernel_size=(3, 3), stride=(1, 1), padding=(1, 1), bias=False)
        (bn2): FrozenBatchNorm2d(64, eps=1e-05)
        (conv3): Conv2d(64, 256, kernel_size=(1, 1), stride=(1, 1), bias=False)
        (bn3): FrozenBatchNorm2d(256, eps=1e-05)
        (relu): ReLU(inplace=True)
        (downsample): Sequential(
          (0): Conv2d(64, 256, kernel_size=(1, 1), stride=(1, 1), bias=False)
          (1): FrozenBatchNorm2d(256, eps=1e-05)
        )
      )
      (1): Bottleneck(
        (conv1): Conv2d(256, 64, kernel_size=(1, 1), stride=(1, 1), bias=False)
        (bn1): FrozenBatchNorm2d(64, eps=1e-05)
        (conv2): Conv2d(64, 64, kernel_size=(3, 3), stride=(1, 1), padding=(1, 1), bias=False)
        (bn2): FrozenBatchNorm2d(64, eps=1e-05)
        (conv3): Conv2d(64, 256, kernel_size=(1, 1), stride=(1, 1), bias=False)
        (bn3): FrozenBatchNorm2d(256, eps=1e-05)
        (relu): ReLU(inplace=True)
      )
      (2): Bottleneck(
        (conv1): Conv2d(256, 64, kernel_size=(1, 1), stride=(1, 1), bias=False)
        (bn1): FrozenBatchNorm2d(64, eps=1e-05)
        (conv2): Conv2d(64, 64, kernel_size=(3, 3), stride=(1, 1), padding=(1, 1), bias=False)
        (bn2): FrozenBatchNorm2d(64, eps=1e-05)
        (conv3): Conv2d(64, 256, kernel_size=(1, 1), stride=(1, 1), bias=False)
        (bn3): FrozenBatchNorm2d(256, eps=1e-05)
        (relu): ReLU(inplace=True)
      )
    )
    (layer2): Sequential(
      (0): Bottleneck(
        (conv1): Conv2d(256, 128, kernel_size=(1, 1), stride=(1, 1), bias=False)
        (bn1): FrozenBatchNorm2d(128, eps=1e-05)
        (conv2): Conv2d(128, 128, kernel_size=(3, 3), stride=(2, 2), padding=(1, 1), bias=False)
        (bn2): FrozenBatchNorm2d(128, eps=1e-05)
        (conv3): Conv2d(128, 512, kernel_size=(1, 1), stride=(1, 1), bias=False)
        (bn3): FrozenBatchNorm2d(512, eps=1e-05)
        (relu): ReLU(inplace=True)
        (downsample): Sequential(
          (0): Conv2d(256, 512, kernel_size=(1, 1), stride=(2, 2), bias=False)
          (1): FrozenBatchNorm2d(512, eps=1e-05)
        )
      )
      (1): Bottleneck(
        (conv1): Conv2d(512, 128, kernel_size=(1, 1), stride=(1, 1), bias=False)
        (bn1): FrozenBatchNorm2d(128, eps=1e-05)
        (conv2): Conv2d(128, 128, kernel_size=(3, 3), stride=(1, 1), padding=(1, 1), bias=False)
        (bn2): FrozenBatchNorm2d(128, eps=1e-05)
        (conv3): Conv2d(128, 512, kernel_size=(1, 1), stride=(1, 1), bias=False)
        (bn3): FrozenBatchNorm2d(512, eps=1e-05)
        (relu): ReLU(inplace=True)
      )
      (2): Bottleneck(
        (conv1): Conv2d(512, 128, kernel_size=(1, 1), stride=(1, 1), bias=False)
        (bn1): FrozenBatchNorm2d(128, eps=1e-05)
        (conv2): Conv2d(128, 128, kernel_size=(3, 3), stride=(1, 1), padding=(1, 1), bias=False)
        (bn2): FrozenBatchNorm2d(128, eps=1e-05)
        (conv3): Conv2d(128, 512, kernel_size=(1, 1), stride=(1, 1), bias=False)
        (bn3): FrozenBatchNorm2d(512, eps=1e-05)
        (relu): ReLU(inplace=True)
      )
      (3): Bottleneck(
        (conv1): Conv2d(512, 128, kernel_size=(1, 1), stride=(1, 1), bias=False)
        (bn1): FrozenBatchNorm2d(128, eps=1e-05)
        (conv2): Conv2d(128, 128, kernel_size=(3, 3), stride=(1, 1), padding=(1, 1), bias=False)
        (bn2): FrozenBatchNorm2d(128, eps=1e-05)
        (conv3): Conv2d(128, 512, kernel_size=(1, 1), stride=(1, 1), bias=False)
        (bn3): FrozenBatchNorm2d(512, eps=1e-05)
        (relu): ReLU(inplace=True)
      )
    )
    (layer3): Sequential(
      (0): Bottleneck(
        (conv1): Conv2d(512, 256, kernel_size=(1, 1), stride=(1, 1), bias=False)
        (bn1): FrozenBatchNorm2d(256, eps=1e-05)
        (conv2): Conv2d(256, 256, kernel_size=(3, 3), stride=(2, 2), padding=(1, 1), bias=False)
        (bn2): FrozenBatchNorm2d(256, eps=1e-05)
        (conv3): Conv2d(256, 1024, kernel_size=(1, 1), stride=(1, 1), bias=False)
        (bn3): FrozenBatchNorm2d(1024, eps=1e-05)
        (relu): ReLU(inplace=True)
        (downsample): Sequential(
          (0): Conv2d(512, 1024, kernel_size=(1, 1), stride=(2, 2), bias=False)
          (1): FrozenBatchNorm2d(1024, eps=1e-05)
        )
      )
      (1): Bottleneck(
        (conv1): Conv2d(1024, 256, kernel_size=(1, 1), stride=(1, 1), bias=False)
        (bn1): FrozenBatchNorm2d(256, eps=1e-05)
        (conv2): Conv2d(256, 256, kernel_size=(3, 3), stride=(1, 1), padding=(1, 1), bias=False)
        (bn2): FrozenBatchNorm2d(256, eps=1e-05)
        (conv3): Conv2d(256, 1024, kernel_size=(1, 1), stride=(1, 1), bias=False)
        (bn3): FrozenBatchNorm2d(1024, eps=1e-05)
        (relu): ReLU(inplace=True)
      )
      (2): Bottleneck(
        (conv1): Conv2d(1024, 256, kernel_size=(1, 1), stride=(1, 1), bias=False)
        (bn1): FrozenBatchNorm2d(256, eps=1e-05)
        (conv2): Conv2d(256, 256, kernel_size=(3, 3), stride=(1, 1), padding=(1, 1), bias=False)
        (bn2): FrozenBatchNorm2d(256, eps=1e-05)
        (conv3): Conv2d(256, 1024, kernel_size=(1, 1), stride=(1, 1), bias=False)
        (bn3): FrozenBatchNorm2d(1024, eps=1e-05)
        (relu): ReLU(inplace=True)
      )
      (3): Bottleneck(
        (conv1): Conv2d(1024, 256, kernel_size=(1, 1), stride=(1, 1), bias=False)
        (bn1): FrozenBatchNorm2d(256, eps=1e-05)
        (conv2): Conv2d(256, 256, kernel_size=(3, 3), stride=(1, 1), padding=(1, 1), bias=False)
        (bn2): FrozenBatchNorm2d(256, eps=1e-05)
        (conv3): Conv2d(256, 1024, kernel_size=(1, 1), stride=(1, 1), bias=False)
        (bn3): FrozenBatchNorm2d(1024, eps=1e-05)
        (relu): ReLU(inplace=True)
      )
      (4): Bottleneck(
        (conv1): Conv2d(1024, 256, kernel_size=(1, 1), stride=(1, 1), bias=False)
        (bn1): FrozenBatchNorm2d(256, eps=1e-05)
        (conv2): Conv2d(256, 256, kernel_size=(3, 3), stride=(1, 1), padding=(1, 1), bias=False)
        (bn2): FrozenBatchNorm2d(256, eps=1e-05)
        (conv3): Conv2d(256, 1024, kernel_size=(1, 1), stride=(1, 1), bias=False)
        (bn3): FrozenBatchNorm2d(1024, eps=1e-05)
        (relu): ReLU(inplace=True)
      )
      (5): Bottleneck(
        (conv1): Conv2d(1024, 256, kernel_size=(1, 1), stride=(1, 1), bias=False)
        (bn1): FrozenBatchNorm2d(256, eps=1e-05)
        (conv2): Conv2d(256, 256, kernel_size=(3, 3), stride=(1, 1), padding=(1, 1), bias=False)
        (bn2): FrozenBatchNorm2d(256, eps=1e-05)
        (conv3): Conv2d(256, 1024, kernel_size=(1, 1), stride=(1, 1), bias=False)
        (bn3): FrozenBatchNorm2d(1024, eps=1e-05)
        (relu): ReLU(inplace=True)
      )
    )
    (layer4): Sequential(
      (0): Bottleneck(
        (conv1): Conv2d(1024, 512, kernel_size=(1, 1), stride=(1, 1), bias=False)
        (bn1): FrozenBatchNorm2d(512, eps=1e-05)
        (conv2): Conv2d(512, 512, kernel_size=(3, 3), stride=(2, 2), padding=(1, 1), bias=False)
        (bn2): FrozenBatchNorm2d(512, eps=1e-05)
        (conv3): Conv2d(512, 2048, kernel_size=(1, 1), stride=(1, 1), bias=False)
        (bn3): FrozenBatchNorm2d(2048, eps=1e-05)
        (relu): ReLU(inplace=True)
        (downsample): Sequential(
          (0): Conv2d(1024, 2048, kernel_size=(1, 1), stride=(2, 2), bias=False)
          (1): FrozenBatchNorm2d(2048, eps=1e-05)
        )
      )
      (1): Bottleneck(
        (conv1): Conv2d(2048, 512, kernel_size=(1, 1), stride=(1, 1), bias=False)
        (bn1): FrozenBatchNorm2d(512, eps=1e-05)
        (conv2): Conv2d(512, 512, kernel_size=(3, 3), stride=(1, 1), padding=(1, 1), bias=False)
        (bn2): FrozenBatchNorm2d(512, eps=1e-05)
        (conv3): Conv2d(512, 2048, kernel_size=(1, 1), stride=(1, 1), bias=False)
        (bn3): FrozenBatchNorm2d(2048, eps=1e-05)
        (relu): ReLU(inplace=True)
      )
      (2): Bottleneck(
        (conv1): Conv2d(2048, 512, kernel_size=(1, 1), stride=(1, 1), bias=False)
        (bn1): FrozenBatchNorm2d(512, eps=1e-05)
        (conv2): Conv2d(512, 512, kernel_size=(3, 3), stride=(1, 1), padding=(1, 1), bias=False)
        (bn2): FrozenBatchNorm2d(512, eps=1e-05)
        (conv3): Conv2d(512, 2048, kernel_size=(1, 1), stride=(1, 1), bias=False)
        (bn3): FrozenBatchNorm2d(2048, eps=1e-05)
        (relu): ReLU(inplace=True)
      )
    )
  )
  (fast_backbone): Net(
    (blocks): ModuleList(
      (0): ResNetBasicStem(
        (conv): Conv2plus1d(
          (conv_t): Conv3d(3, 24, kernel_size=(1, 3, 3), stride=(1, 2, 2), padding=(0, 1, 1), bias=False)
          (conv_xy): Conv3d(24, 24, kernel_size=(5, 1, 1), stride=(1, 1, 1), padding=(2, 0, 0), groups=24, bias=False)
        )
        (norm): BatchNorm3d(24, eps=1e-05, momentum=0.1, affine=True, track_running_stats=True)
        (activation): ReLU()
      )
      (1): ResStage(
        (res_blocks): ModuleList(
          (0): ResBlock(
            (branch1_conv): Conv3d(24, 24, kernel_size=(1, 1, 1), stride=(1, 2, 2), bias=False)
            (branch2): BottleneckBlock(
              (conv_a): Conv3d(24, 54, kernel_size=(1, 1, 1), stride=(1, 1, 1), bias=False)
              (norm_a): BatchNorm3d(54, eps=1e-05, momentum=0.1, affine=True, track_running_stats=True)
              (act_a): ReLU()
              (conv_b): Conv3d(54, 54, kernel_size=(3, 3, 3), stride=(1, 2, 2), padding=(1, 1, 1), groups=54, bias=False)
              (norm_b): Sequential(
                (0): BatchNorm3d(54, eps=1e-05, momentum=0.1, affine=True, track_running_stats=True)
                (1): SqueezeExcitation(
                  (block): Sequential(
                    (0): Conv3d(54, 8, kernel_size=(1, 1, 1), stride=(1, 1, 1))
                    (1): ReLU()
                    (2): Conv3d(8, 54, kernel_size=(1, 1, 1), stride=(1, 1, 1))
                    (3): Sigmoid()
                  )
                )
              )
              (act_b): Swish()
              (conv_c): Conv3d(54, 24, kernel_size=(1, 1, 1), stride=(1, 1, 1), bias=False)
              (norm_c): BatchNorm3d(24, eps=1e-05, momentum=0.1, affine=True, track_running_stats=True)
            )
            (activation): ReLU()
          )
          (1): ResBlock(
            (branch2): BottleneckBlock(
              (conv_a): Conv3d(24, 54, kernel_size=(1, 1, 1), stride=(1, 1, 1), bias=False)
              (norm_a): BatchNorm3d(54, eps=1e-05, momentum=0.1, affine=True, track_running_stats=True)
              (act_a): ReLU()
              (conv_b): Conv3d(54, 54, kernel_size=(3, 3, 3), stride=(1, 1, 1), padding=(1, 1, 1), groups=54, bias=False)
              (norm_b): Sequential(
                (0): BatchNorm3d(54, eps=1e-05, momentum=0.1, affine=True, track_running_stats=True)
                (1): Identity()
              )
              (act_b): Swish()
              (conv_c): Conv3d(54, 24, kernel_size=(1, 1, 1), stride=(1, 1, 1), bias=False)
              (norm_c): BatchNorm3d(24, eps=1e-05, momentum=0.1, affine=True, track_running_stats=True)
            )
            (activation): ReLU()
          )
          (2): ResBlock(
            (branch2): BottleneckBlock(
              (conv_a): Conv3d(24, 54, kernel_size=(1, 1, 1), stride=(1, 1, 1), bias=False)
              (norm_a): BatchNorm3d(54, eps=1e-05, momentum=0.1, affine=True, track_running_stats=True)
              (act_a): ReLU()
              (conv_b): Conv3d(54, 54, kernel_size=(3, 3, 3), stride=(1, 1, 1), padding=(1, 1, 1), groups=54, bias=False)
              (norm_b): Sequential(
                (0): BatchNorm3d(54, eps=1e-05, momentum=0.1, affine=True, track_running_stats=True)
                (1): SqueezeExcitation(
                  (block): Sequential(
                    (0): Conv3d(54, 8, kernel_size=(1, 1, 1), stride=(1, 1, 1))
                    (1): ReLU()
                    (2): Conv3d(8, 54, kernel_size=(1, 1, 1), stride=(1, 1, 1))
                    (3): Sigmoid()
                  )
                )
              )
              (act_b): Swish()
              (conv_c): Conv3d(54, 24, kernel_size=(1, 1, 1), stride=(1, 1, 1), bias=False)
              (norm_c): BatchNorm3d(24, eps=1e-05, momentum=0.1, affine=True, track_running_stats=True)
            )
            (activation): ReLU()
          )
        )
      )
      (2): ResStage(
        (res_blocks): ModuleList(
          (0): ResBlock(
            (branch1_conv): Conv3d(24, 48, kernel_size=(1, 1, 1), stride=(1, 2, 2), bias=False)
            (branch1_norm): BatchNorm3d(48, eps=1e-05, momentum=0.1, affine=True, track_running_stats=True)
            (branch2): BottleneckBlock(
              (conv_a): Conv3d(24, 108, kernel_size=(1, 1, 1), stride=(1, 1, 1), bias=False)
              (norm_a): BatchNorm3d(108, eps=1e-05, momentum=0.1, affine=True, track_running_stats=True)
              (act_a): ReLU()
              (conv_b): Conv3d(108, 108, kernel_size=(3, 3, 3), stride=(1, 2, 2), padding=(1, 1, 1), groups=108, bias=False)
              (norm_b): Sequential(
                (0): BatchNorm3d(108, eps=1e-05, momentum=0.1, affine=True, track_running_stats=True)
                (1): SqueezeExcitation(
                  (block): Sequential(
                    (0): Conv3d(108, 8, kernel_size=(1, 1, 1), stride=(1, 1, 1))
                    (1): ReLU()
                    (2): Conv3d(8, 108, kernel_size=(1, 1, 1), stride=(1, 1, 1))
                    (3): Sigmoid()
                  )
                )
              )
              (act_b): Swish()
              (conv_c): Conv3d(108, 48, kernel_size=(1, 1, 1), stride=(1, 1, 1), bias=False)
              (norm_c): BatchNorm3d(48, eps=1e-05, momentum=0.1, affine=True, track_running_stats=True)
            )
            (activation): ReLU()
          )
          (1): ResBlock(
            (branch2): BottleneckBlock(
              (conv_a): Conv3d(48, 108, kernel_size=(1, 1, 1), stride=(1, 1, 1), bias=False)
              (norm_a): BatchNorm3d(108, eps=1e-05, momentum=0.1, affine=True, track_running_stats=True)
              (act_a): ReLU()
              (conv_b): Conv3d(108, 108, kernel_size=(3, 3, 3), stride=(1, 1, 1), padding=(1, 1, 1), groups=108, bias=False)
              (norm_b): Sequential(
                (0): BatchNorm3d(108, eps=1e-05, momentum=0.1, affine=True, track_running_stats=True)
                (1): Identity()
              )
              (act_b): Swish()
              (conv_c): Conv3d(108, 48, kernel_size=(1, 1, 1), stride=(1, 1, 1), bias=False)
              (norm_c): BatchNorm3d(48, eps=1e-05, momentum=0.1, affine=True, track_running_stats=True)
            )
            (activation): ReLU()
          )
          (2): ResBlock(
            (branch2): BottleneckBlock(
              (conv_a): Conv3d(48, 108, kernel_size=(1, 1, 1), stride=(1, 1, 1), bias=False)
              (norm_a): BatchNorm3d(108, eps=1e-05, momentum=0.1, affine=True, track_running_stats=True)
              (act_a): ReLU()
              (conv_b): Conv3d(108, 108, kernel_size=(3, 3, 3), stride=(1, 1, 1), padding=(1, 1, 1), groups=108, bias=False)
              (norm_b): Sequential(
                (0): BatchNorm3d(108, eps=1e-05, momentum=0.1, affine=True, track_running_stats=True)
                (1): SqueezeExcitation(
                  (block): Sequential(
                    (0): Conv3d(108, 8, kernel_size=(1, 1, 1), stride=(1, 1, 1))
                    (1): ReLU()
                    (2): Conv3d(8, 108, kernel_size=(1, 1, 1), stride=(1, 1, 1))
                    (3): Sigmoid()
                  )
                )
              )
              (act_b): Swish()
              (conv_c): Conv3d(108, 48, kernel_size=(1, 1, 1), stride=(1, 1, 1), bias=False)
              (norm_c): BatchNorm3d(48, eps=1e-05, momentum=0.1, affine=True, track_running_stats=True)
            )
            (activation): ReLU()
          )
          (3): ResBlock(
            (branch2): BottleneckBlock(
              (conv_a): Conv3d(48, 108, kernel_size=(1, 1, 1), stride=(1, 1, 1), bias=False)
              (norm_a): BatchNorm3d(108, eps=1e-05, momentum=0.1, affine=True, track_running_stats=True)
              (act_a): ReLU()
              (conv_b): Conv3d(108, 108, kernel_size=(3, 3, 3), stride=(1, 1, 1), padding=(1, 1, 1), groups=108, bias=False)
              (norm_b): Sequential(
                (0): BatchNorm3d(108, eps=1e-05, momentum=0.1, affine=True, track_running_stats=True)
                (1): Identity()
              )
              (act_b): Swish()
              (conv_c): Conv3d(108, 48, kernel_size=(1, 1, 1), stride=(1, 1, 1), bias=False)
              (norm_c): BatchNorm3d(48, eps=1e-05, momentum=0.1, affine=True, track_running_stats=True)
            )
            (activation): ReLU()
          )
          (4): ResBlock(
            (branch2): BottleneckBlock(
              (conv_a): Conv3d(48, 108, kernel_size=(1, 1, 1), stride=(1, 1, 1), bias=False)
              (norm_a): BatchNorm3d(108, eps=1e-05, momentum=0.1, affine=True, track_running_stats=True)
              (act_a): ReLU()
              (conv_b): Conv3d(108, 108, kernel_size=(3, 3, 3), stride=(1, 1, 1), padding=(1, 1, 1), groups=108, bias=False)
              (norm_b): Sequential(
                (0): BatchNorm3d(108, eps=1e-05, momentum=0.1, affine=True, track_running_stats=True)
                (1): SqueezeExcitation(
                  (block): Sequential(
                    (0): Conv3d(108, 8, kernel_size=(1, 1, 1), stride=(1, 1, 1))
                    (1): ReLU()
                    (2): Conv3d(8, 108, kernel_size=(1, 1, 1), stride=(1, 1, 1))
                    (3): Sigmoid()
                  )
                )
              )
              (act_b): Swish()
              (conv_c): Conv3d(108, 48, kernel_size=(1, 1, 1), stride=(1, 1, 1), bias=False)
              (norm_c): BatchNorm3d(48, eps=1e-05, momentum=0.1, affine=True, track_running_stats=True)
            )
            (activation): ReLU()
          )
        )
      )
      (3): ResStage(
        (res_blocks): ModuleList(
          (0): ResBlock(
            (branch1_conv): Conv3d(48, 96, kernel_size=(1, 1, 1), stride=(1, 2, 2), bias=False)
            (branch1_norm): BatchNorm3d(96, eps=1e-05, momentum=0.1, affine=True, track_running_stats=True)
            (branch2): BottleneckBlock(
              (conv_a): Conv3d(48, 216, kernel_size=(1, 1, 1), stride=(1, 1, 1), bias=False)
              (norm_a): BatchNorm3d(216, eps=1e-05, momentum=0.1, affine=True, track_running_stats=True)
              (act_a): ReLU()
              (conv_b): Conv3d(216, 216, kernel_size=(3, 3, 3), stride=(1, 2, 2), padding=(1, 1, 1), groups=216, bias=False)
              (norm_b): Sequential(
                (0): BatchNorm3d(216, eps=1e-05, momentum=0.1, affine=True, track_running_stats=True)
                (1): SqueezeExcitation(
                  (block): Sequential(
                    (0): Conv3d(216, 16, kernel_size=(1, 1, 1), stride=(1, 1, 1))
                    (1): ReLU()
                    (2): Conv3d(16, 216, kernel_size=(1, 1, 1), stride=(1, 1, 1))
                    (3): Sigmoid()
                  )
                )
              )
              (act_b): Swish()
              (conv_c): Conv3d(216, 96, kernel_size=(1, 1, 1), stride=(1, 1, 1), bias=False)
              (norm_c): BatchNorm3d(96, eps=1e-05, momentum=0.1, affine=True, track_running_stats=True)
            )
            (activation): ReLU()
          )
          (1): ResBlock(
            (branch2): BottleneckBlock(
              (conv_a): Conv3d(96, 216, kernel_size=(1, 1, 1), stride=(1, 1, 1), bias=False)
              (norm_a): BatchNorm3d(216, eps=1e-05, momentum=0.1, affine=True, track_running_stats=True)
              (act_a): ReLU()
              (conv_b): Conv3d(216, 216, kernel_size=(3, 3, 3), stride=(1, 1, 1), padding=(1, 1, 1), groups=216, bias=False)
              (norm_b): Sequential(
                (0): BatchNorm3d(216, eps=1e-05, momentum=0.1, affine=True, track_running_stats=True)
                (1): Identity()
              )
              (act_b): Swish()
              (conv_c): Conv3d(216, 96, kernel_size=(1, 1, 1), stride=(1, 1, 1), bias=False)
              (norm_c): BatchNorm3d(96, eps=1e-05, momentum=0.1, affine=True, track_running_stats=True)
            )
            (activation): ReLU()
          )
          (2): ResBlock(
            (branch2): BottleneckBlock(
              (conv_a): Conv3d(96, 216, kernel_size=(1, 1, 1), stride=(1, 1, 1), bias=False)
              (norm_a): BatchNorm3d(216, eps=1e-05, momentum=0.1, affine=True, track_running_stats=True)
              (act_a): ReLU()
              (conv_b): Conv3d(216, 216, kernel_size=(3, 3, 3), stride=(1, 1, 1), padding=(1, 1, 1), groups=216, bias=False)
              (norm_b): Sequential(
                (0): BatchNorm3d(216, eps=1e-05, momentum=0.1, affine=True, track_running_stats=True)
                (1): SqueezeExcitation(
                  (block): Sequential(
                    (0): Conv3d(216, 16, kernel_size=(1, 1, 1), stride=(1, 1, 1))
                    (1): ReLU()
                    (2): Conv3d(16, 216, kernel_size=(1, 1, 1), stride=(1, 1, 1))
                    (3): Sigmoid()
                  )
                )
              )
              (act_b): Swish()
              (conv_c): Conv3d(216, 96, kernel_size=(1, 1, 1), stride=(1, 1, 1), bias=False)
              (norm_c): BatchNorm3d(96, eps=1e-05, momentum=0.1, affine=True, track_running_stats=True)
            )
            (activation): ReLU()
          )
          (3): ResBlock(
            (branch2): BottleneckBlock(
              (conv_a): Conv3d(96, 216, kernel_size=(1, 1, 1), stride=(1, 1, 1), bias=False)
              (norm_a): BatchNorm3d(216, eps=1e-05, momentum=0.1, affine=True, track_running_stats=True)
              (act_a): ReLU()
              (conv_b): Conv3d(216, 216, kernel_size=(3, 3, 3), stride=(1, 1, 1), padding=(1, 1, 1), groups=216, bias=False)
              (norm_b): Sequential(
                (0): BatchNorm3d(216, eps=1e-05, momentum=0.1, affine=True, track_running_stats=True)
                (1): Identity()
              )
              (act_b): Swish()
              (conv_c): Conv3d(216, 96, kernel_size=(1, 1, 1), stride=(1, 1, 1), bias=False)
              (norm_c): BatchNorm3d(96, eps=1e-05, momentum=0.1, affine=True, track_running_stats=True)
            )
            (activation): ReLU()
          )
          (4): ResBlock(
            (branch2): BottleneckBlock(
              (conv_a): Conv3d(96, 216, kernel_size=(1, 1, 1), stride=(1, 1, 1), bias=False)
              (norm_a): BatchNorm3d(216, eps=1e-05, momentum=0.1, affine=True, track_running_stats=True)
              (act_a): ReLU()
              (conv_b): Conv3d(216, 216, kernel_size=(3, 3, 3), stride=(1, 1, 1), padding=(1, 1, 1), groups=216, bias=False)
              (norm_b): Sequential(
                (0): BatchNorm3d(216, eps=1e-05, momentum=0.1, affine=True, track_running_stats=True)
                (1): SqueezeExcitation(
                  (block): Sequential(
                    (0): Conv3d(216, 16, kernel_size=(1, 1, 1), stride=(1, 1, 1))
                    (1): ReLU()
                    (2): Conv3d(16, 216, kernel_size=(1, 1, 1), stride=(1, 1, 1))
                    (3): Sigmoid()
                  )
                )
              )
              (act_b): Swish()
              (conv_c): Conv3d(216, 96, kernel_size=(1, 1, 1), stride=(1, 1, 1), bias=False)
              (norm_c): BatchNorm3d(96, eps=1e-05, momentum=0.1, affine=True, track_running_stats=True)
            )
            (activation): ReLU()
          )
          (5): ResBlock(
            (branch2): BottleneckBlock(
              (conv_a): Conv3d(96, 216, kernel_size=(1, 1, 1), stride=(1, 1, 1), bias=False)
              (norm_a): BatchNorm3d(216, eps=1e-05, momentum=0.1, affine=True, track_running_stats=True)
              (act_a): ReLU()
              (conv_b): Conv3d(216, 216, kernel_size=(3, 3, 3), stride=(1, 1, 1), padding=(1, 1, 1), groups=216, bias=False)
              (norm_b): Sequential(
                (0): BatchNorm3d(216, eps=1e-05, momentum=0.1, affine=True, track_running_stats=True)
                (1): Identity()
              )
              (act_b): Swish()
              (conv_c): Conv3d(216, 96, kernel_size=(1, 1, 1), stride=(1, 1, 1), bias=False)
              (norm_c): BatchNorm3d(96, eps=1e-05, momentum=0.1, affine=True, track_running_stats=True)
            )
            (activation): ReLU()
          )
          (6): ResBlock(
            (branch2): BottleneckBlock(
              (conv_a): Conv3d(96, 216, kernel_size=(1, 1, 1), stride=(1, 1, 1), bias=False)
              (norm_a): BatchNorm3d(216, eps=1e-05, momentum=0.1, affine=True, track_running_stats=True)
              (act_a): ReLU()
              (conv_b): Conv3d(216, 216, kernel_size=(3, 3, 3), stride=(1, 1, 1), padding=(1, 1, 1), groups=216, bias=False)
              (norm_b): Sequential(
                (0): BatchNorm3d(216, eps=1e-05, momentum=0.1, affine=True, track_running_stats=True)
                (1): SqueezeExcitation(
                  (block): Sequential(
                    (0): Conv3d(216, 16, kernel_size=(1, 1, 1), stride=(1, 1, 1))
                    (1): ReLU()
                    (2): Conv3d(16, 216, kernel_size=(1, 1, 1), stride=(1, 1, 1))
                    (3): Sigmoid()
                  )
                )
              )
              (act_b): Swish()
              (conv_c): Conv3d(216, 96, kernel_size=(1, 1, 1), stride=(1, 1, 1), bias=False)
              (norm_c): BatchNorm3d(96, eps=1e-05, momentum=0.1, affine=True, track_running_stats=True)
            )
            (activation): ReLU()
          )
          (7): ResBlock(
            (branch2): BottleneckBlock(
              (conv_a): Conv3d(96, 216, kernel_size=(1, 1, 1), stride=(1, 1, 1), bias=False)
              (norm_a): BatchNorm3d(216, eps=1e-05, momentum=0.1, affine=True, track_running_stats=True)
              (act_a): ReLU()
              (conv_b): Conv3d(216, 216, kernel_size=(3, 3, 3), stride=(1, 1, 1), padding=(1, 1, 1), groups=216, bias=False)
              (norm_b): Sequential(
                (0): BatchNorm3d(216, eps=1e-05, momentum=0.1, affine=True, track_running_stats=True)
                (1): Identity()
              )
              (act_b): Swish()
              (conv_c): Conv3d(216, 96, kernel_size=(1, 1, 1), stride=(1, 1, 1), bias=False)
              (norm_c): BatchNorm3d(96, eps=1e-05, momentum=0.1, affine=True, track_running_stats=True)
            )
            (activation): ReLU()
          )
          (8): ResBlock(
            (branch2): BottleneckBlock(
              (conv_a): Conv3d(96, 216, kernel_size=(1, 1, 1), stride=(1, 1, 1), bias=False)
              (norm_a): BatchNorm3d(216, eps=1e-05, momentum=0.1, affine=True, track_running_stats=True)
              (act_a): ReLU()
              (conv_b): Conv3d(216, 216, kernel_size=(3, 3, 3), stride=(1, 1, 1), padding=(1, 1, 1), groups=216, bias=False)
              (norm_b): Sequential(
                (0): BatchNorm3d(216, eps=1e-05, momentum=0.1, affine=True, track_running_stats=True)
                (1): SqueezeExcitation(
                  (block): Sequential(
                    (0): Conv3d(216, 16, kernel_size=(1, 1, 1), stride=(1, 1, 1))
                    (1): ReLU()
                    (2): Conv3d(16, 216, kernel_size=(1, 1, 1), stride=(1, 1, 1))
                    (3): Sigmoid()
                  )
                )
              )
              (act_b): Swish()
              (conv_c): Conv3d(216, 96, kernel_size=(1, 1, 1), stride=(1, 1, 1), bias=False)
              (norm_c): BatchNorm3d(96, eps=1e-05, momentum=0.1, affine=True, track_running_stats=True)
            )
            (activation): ReLU()
          )
          (9): ResBlock(
            (branch2): BottleneckBlock(
              (conv_a): Conv3d(96, 216, kernel_size=(1, 1, 1), stride=(1, 1, 1), bias=False)
              (norm_a): BatchNorm3d(216, eps=1e-05, momentum=0.1, affine=True, track_running_stats=True)
              (act_a): ReLU()
              (conv_b): Conv3d(216, 216, kernel_size=(3, 3, 3), stride=(1, 1, 1), padding=(1, 1, 1), groups=216, bias=False)
              (norm_b): Sequential(
                (0): BatchNorm3d(216, eps=1e-05, momentum=0.1, affine=True, track_running_stats=True)
                (1): Identity()
              )
              (act_b): Swish()
              (conv_c): Conv3d(216, 96, kernel_size=(1, 1, 1), stride=(1, 1, 1), bias=False)
              (norm_c): BatchNorm3d(96, eps=1e-05, momentum=0.1, affine=True, track_running_stats=True)
            )
            (activation): ReLU()
          )
          (10): ResBlock(
            (branch2): BottleneckBlock(
              (conv_a): Conv3d(96, 216, kernel_size=(1, 1, 1), stride=(1, 1, 1), bias=False)
              (norm_a): BatchNorm3d(216, eps=1e-05, momentum=0.1, affine=True, track_running_stats=True)
              (act_a): ReLU()
              (conv_b): Conv3d(216, 216, kernel_size=(3, 3, 3), stride=(1, 1, 1), padding=(1, 1, 1), groups=216, bias=False)
              (norm_b): Sequential(
                (0): BatchNorm3d(216, eps=1e-05, momentum=0.1, affine=True, track_running_stats=True)
                (1): SqueezeExcitation(
                  (block): Sequential(
                    (0): Conv3d(216, 16, kernel_size=(1, 1, 1), stride=(1, 1, 1))
                    (1): ReLU()
                    (2): Conv3d(16, 216, kernel_size=(1, 1, 1), stride=(1, 1, 1))
                    (3): Sigmoid()
                  )
                )
              )
              (act_b): Swish()
              (conv_c): Conv3d(216, 96, kernel_size=(1, 1, 1), stride=(1, 1, 1), bias=False)
              (norm_c): BatchNorm3d(96, eps=1e-05, momentum=0.1, affine=True, track_running_stats=True)
            )
            (activation): ReLU()
          )
        )
      )
      (4): ResStage(
        (res_blocks): ModuleList(
          (0): ResBlock(
            (branch1_conv): Conv3d(96, 192, kernel_size=(1, 1, 1), stride=(1, 2, 2), bias=False)
            (branch1_norm): BatchNorm3d(192, eps=1e-05, momentum=0.1, affine=True, track_running_stats=True)
            (branch2): BottleneckBlock(
              (conv_a): Conv3d(96, 432, kernel_size=(1, 1, 1), stride=(1, 1, 1), bias=False)
              (norm_a): BatchNorm3d(432, eps=1e-05, momentum=0.1, affine=True, track_running_stats=True)
              (act_a): ReLU()
              (conv_b): Conv3d(432, 432, kernel_size=(3, 3, 3), stride=(1, 2, 2), padding=(1, 1, 1), groups=432, bias=False)
              (norm_b): Sequential(
                (0): BatchNorm3d(432, eps=1e-05, momentum=0.1, affine=True, track_running_stats=True)
                (1): SqueezeExcitation(
                  (block): Sequential(
                    (0): Conv3d(432, 32, kernel_size=(1, 1, 1), stride=(1, 1, 1))
                    (1): ReLU()
                    (2): Conv3d(32, 432, kernel_size=(1, 1, 1), stride=(1, 1, 1))
                    (3): Sigmoid()
                  )
                )
              )
              (act_b): Swish()
              (conv_c): Conv3d(432, 192, kernel_size=(1, 1, 1), stride=(1, 1, 1), bias=False)
              (norm_c): BatchNorm3d(192, eps=1e-05, momentum=0.1, affine=True, track_running_stats=True)
            )
            (activation): ReLU()
          )
          (1): ResBlock(
            (branch2): BottleneckBlock(
              (conv_a): Conv3d(192, 432, kernel_size=(1, 1, 1), stride=(1, 1, 1), bias=False)
              (norm_a): BatchNorm3d(432, eps=1e-05, momentum=0.1, affine=True, track_running_stats=True)
              (act_a): ReLU()
              (conv_b): Conv3d(432, 432, kernel_size=(3, 3, 3), stride=(1, 1, 1), padding=(1, 1, 1), groups=432, bias=False)
              (norm_b): Sequential(
                (0): BatchNorm3d(432, eps=1e-05, momentum=0.1, affine=True, track_running_stats=True)
                (1): Identity()
              )
              (act_b): Swish()
              (conv_c): Conv3d(432, 192, kernel_size=(1, 1, 1), stride=(1, 1, 1), bias=False)
              (norm_c): BatchNorm3d(192, eps=1e-05, momentum=0.1, affine=True, track_running_stats=True)
            )
            (activation): ReLU()
          )
          (2): ResBlock(
            (branch2): BottleneckBlock(
              (conv_a): Conv3d(192, 432, kernel_size=(1, 1, 1), stride=(1, 1, 1), bias=False)
              (norm_a): BatchNorm3d(432, eps=1e-05, momentum=0.1, affine=True, track_running_stats=True)
              (act_a): ReLU()
              (conv_b): Conv3d(432, 432, kernel_size=(3, 3, 3), stride=(1, 1, 1), padding=(1, 1, 1), groups=432, bias=False)
              (norm_b): Sequential(
                (0): BatchNorm3d(432, eps=1e-05, momentum=0.1, affine=True, track_running_stats=True)
                (1): SqueezeExcitation(
                  (block): Sequential(
                    (0): Conv3d(432, 32, kernel_size=(1, 1, 1), stride=(1, 1, 1))
                    (1): ReLU()
                    (2): Conv3d(32, 432, kernel_size=(1, 1, 1), stride=(1, 1, 1))
                    (3): Sigmoid()
                  )
                )
              )
              (act_b): Swish()
              (conv_c): Conv3d(432, 192, kernel_size=(1, 1, 1), stride=(1, 1, 1), bias=False)
              (norm_c): BatchNorm3d(192, eps=1e-05, momentum=0.1, affine=True, track_running_stats=True)
            )
            (activation): ReLU()
          )
          (3): ResBlock(
            (branch2): BottleneckBlock(
              (conv_a): Conv3d(192, 432, kernel_size=(1, 1, 1), stride=(1, 1, 1), bias=False)
              (norm_a): BatchNorm3d(432, eps=1e-05, momentum=0.1, affine=True, track_running_stats=True)
              (act_a): ReLU()
              (conv_b): Conv3d(432, 432, kernel_size=(3, 3, 3), stride=(1, 1, 1), padding=(1, 1, 1), groups=432, bias=False)
              (norm_b): Sequential(
                (0): BatchNorm3d(432, eps=1e-05, momentum=0.1, affine=True, track_running_stats=True)
                (1): Identity()
              )
              (act_b): Swish()
              (conv_c): Conv3d(432, 192, kernel_size=(1, 1, 1), stride=(1, 1, 1), bias=False)
              (norm_c): BatchNorm3d(192, eps=1e-05, momentum=0.1, affine=True, track_running_stats=True)
            )
            (activation): ReLU()
          )
          (4): ResBlock(
            (branch2): BottleneckBlock(
              (conv_a): Conv3d(192, 432, kernel_size=(1, 1, 1), stride=(1, 1, 1), bias=False)
              (norm_a): BatchNorm3d(432, eps=1e-05, momentum=0.1, affine=True, track_running_stats=True)
              (act_a): ReLU()
              (conv_b): Conv3d(432, 432, kernel_size=(3, 3, 3), stride=(1, 1, 1), padding=(1, 1, 1), groups=432, bias=False)
              (norm_b): Sequential(
                (0): BatchNorm3d(432, eps=1e-05, momentum=0.1, affine=True, track_running_stats=True)
                (1): SqueezeExcitation(
                  (block): Sequential(
                    (0): Conv3d(432, 32, kernel_size=(1, 1, 1), stride=(1, 1, 1))
                    (1): ReLU()
                    (2): Conv3d(32, 432, kernel_size=(1, 1, 1), stride=(1, 1, 1))
                    (3): Sigmoid()
                  )
                )
              )
              (act_b): Swish()
              (conv_c): Conv3d(432, 192, kernel_size=(1, 1, 1), stride=(1, 1, 1), bias=False)
              (norm_c): BatchNorm3d(192, eps=1e-05, momentum=0.1, affine=True, track_running_stats=True)
            )
            (activation): ReLU()
          )
          (5): ResBlock(
            (branch2): BottleneckBlock(
              (conv_a): Conv3d(192, 432, kernel_size=(1, 1, 1), stride=(1, 1, 1), bias=False)
              (norm_a): BatchNorm3d(432, eps=1e-05, momentum=0.1, affine=True, track_running_stats=True)
              (act_a): ReLU()
              (conv_b): Conv3d(432, 432, kernel_size=(3, 3, 3), stride=(1, 1, 1), padding=(1, 1, 1), groups=432, bias=False)
              (norm_b): Sequential(
                (0): BatchNorm3d(432, eps=1e-05, momentum=0.1, affine=True, track_running_stats=True)
                (1): Identity()
              )
              (act_b): Swish()
              (conv_c): Conv3d(432, 192, kernel_size=(1, 1, 1), stride=(1, 1, 1), bias=False)
              (norm_c): BatchNorm3d(192, eps=1e-05, momentum=0.1, affine=True, track_running_stats=True)
            )
            (activation): ReLU()
          )
          (6): ResBlock(
            (branch2): BottleneckBlock(
              (conv_a): Conv3d(192, 432, kernel_size=(1, 1, 1), stride=(1, 1, 1), bias=False)
              (norm_a): BatchNorm3d(432, eps=1e-05, momentum=0.1, affine=True, track_running_stats=True)
              (act_a): ReLU()
              (conv_b): Conv3d(432, 432, kernel_size=(3, 3, 3), stride=(1, 1, 1), padding=(1, 1, 1), groups=432, bias=False)
              (norm_b): Sequential(
                (0): BatchNorm3d(432, eps=1e-05, momentum=0.1, affine=True, track_running_stats=True)
                (1): SqueezeExcitation(
                  (block): Sequential(
                    (0): Conv3d(432, 32, kernel_size=(1, 1, 1), stride=(1, 1, 1))
                    (1): ReLU()
                    (2): Conv3d(32, 432, kernel_size=(1, 1, 1), stride=(1, 1, 1))
                    (3): Sigmoid()
                  )
                )
              )
              (act_b): Swish()
              (conv_c): Conv3d(432, 192, kernel_size=(1, 1, 1), stride=(1, 1, 1), bias=False)
              (norm_c): BatchNorm3d(192, eps=1e-05, momentum=0.1, affine=True, track_running_stats=True)
            )
            (activation): ReLU()
          )
        )
      )
    )
  )
  (pre_pyramid_fusion_block_1): ConvolutionalFusionBlock(
    (post_up_conv_block): Conv2d(24, 256, kernel_size=(3, 3), stride=(1, 1), padding=(1, 1))
    (post_sum_conv_block): Conv2d(256, 256, kernel_size=(3, 3), stride=(1, 1), padding=(1, 1))
  )
  (pre_pyramid_fusion_block_2): ConvolutionalFusionBlock(
    (post_up_conv_block): Conv2d(48, 512, kernel_size=(3, 3), stride=(1, 1), padding=(1, 1))
    (post_sum_conv_block): Conv2d(512, 512, kernel_size=(3, 3), stride=(1, 1), padding=(1, 1))
  )
  (pre_pyramid_fusion_block_3): ConvolutionalFusionBlock(
    (post_up_conv_block): Conv2d(96, 1024, kernel_size=(3, 3), stride=(1, 1), padding=(1, 1))
    (post_sum_conv_block): Conv2d(1024, 1024, kernel_size=(3, 3), stride=(1, 1), padding=(1, 1))
  )
  (pre_pyramid_fusion_block_4): ConvolutionalFusionBlock(
    (post_up_conv_block): Conv2d(192, 2048, kernel_size=(3, 3), stride=(1, 1), padding=(1, 1))
    (post_sum_conv_block): Conv2d(2048, 2048, kernel_size=(3, 3), stride=(1, 1), padding=(1, 1))
  )
  (still_fpn): FeaturePyramidNetwork(
    (inner_blocks): ModuleList(
      (0): Conv2d(256, 256, kernel_size=(1, 1), stride=(1, 1))
      (1): Conv2d(512, 256, kernel_size=(1, 1), stride=(1, 1))
      (2): Conv2d(1024, 256, kernel_size=(1, 1), stride=(1, 1))
      (3): Conv2d(2048, 256, kernel_size=(1, 1), stride=(1, 1))
    )
    (layer_blocks): ModuleList(
      (0): Conv2d(256, 256, kernel_size=(3, 3), stride=(1, 1), padding=(1, 1))
      (1): Conv2d(256, 256, kernel_size=(3, 3), stride=(1, 1), padding=(1, 1))
      (2): Conv2d(256, 256, kernel_size=(3, 3), stride=(1, 1), padding=(1, 1))
      (3): Conv2d(256, 256, kernel_size=(3, 3), stride=(1, 1), padding=(1, 1))
    )
    (extra_blocks): LastLevelMaxPool()
  )
)
AVERAGE_TOP_K_CHECKPOINTS: 1
BN:
  EPSILON: 1e-05
  MOMENTUM: 0.1
  NORM_TYPE: batchnorm
  NUM_BATCHES_PRECISE: 200
  NUM_SPLITS: 1
  NUM_SYNC_DEVICES: 1
  USE_PRECISE_STATS: False
  WEIGHT_DECAY: 0.0
CHECKPOINT_FILE_PATH:
CHECKPOINT_LOAD_MODEL_HEAD: True
DATA:
  FAST:
    MEAN: [0.45, 0.45, 0.45]
…
